src/model/pronunciation_model.pt (torch, 924389 bytes, 6 tensors)

model.0.weight f4 [256, 768]
0	0xb96fa514	-0.00022854313
1	0x3cf8abb2	0.030355308
2	0x3c58a6fe	0.013223408
3	0x3cd0f78c	0.025508665
4	0x3b472794	0.003038858
5	0x3c054be8	0.008135773
6	0xbb79e65a	-0.0038131685
7	0xba795dbc	-0.00095125637
8	0x3bf8542f	0.007578395
9	0xbc4b851a	-0.012421871
10	0x3cd71644	0.026255734
11	0x3c81f807	0.015865339
12	0xbc023ecf	-0.007949545
13	0x3ce7f5ee	0.02831551
14	0x3d023b84	0.03179504
15	0xbc578e06	-0.01315642
16	0xbc9a0776	-0.018802386
17	0xbcb4464d	-0.022006178
18	0x3c9f4c93	0.019445693
19	0xb99ce3d9	-0.00029924398
20	0xbcb194c3	-0.02167738
21	0x3ca4a659	0.020098852
22	0xbd052530	-0.032506168
23	0xbc1d4db3	-0.0096010445
24	0xbbc5cae5	-0.00603615
25	0xbbec82ec	-0.0072177555
26	0x3c02847c	0.007966157
27	0xbcc3ee48	-0.023917332
28	0xbd09f4a2	-0.033680566
29	0x3c853933	0.016262626
30	0x3d099172	0.033585973
31	0xbce9cc25	-0.028539727
32	0xbcaa0359	-0.02075355
33	0x3cafce2a	0.021460611
34	0xbcfb0063	-0.030639833
35	0x3c0ae782	0.008478047
36	0xbd012ba6	-0.031535767
37	0xbc918ae0	-0.017766416
38	0xbc020439	-0.007935577
39	0xbd08c491	-0.033390585
40	0xb9b4f394	-0.00034513755
41	0x3cf197b6	0.029491287
42	0xbc59ba56	-0.013289055
43	0x3bcd8b33	0.0062726974
44	0xbaa0d2bc	-0.0012269835
45	0x3cf70bf8	0.030157074
46	0xbbe14e5e	-0.006875797
47	0x3c1ae78b	0.009454618
48	0xbc9c3c74	-0.019071795
49	0x3c9f74b8	0.019464836
50	0x3cce5bb2	0.025190208
51	0x3cac7e19	0.021056222
52	0xbcef5700	-0.02921629
53	0x3c417285	0.011807089
54	0x3c85ee14	0.016348876
55	0xbbc3b77b	-0.0059728003
56	0x3c417458	0.011807524
57	0x3cad8159	0.021179842
58	0xbc470b7c	-0.012148734
59	0x3ccfed43	0.02538169
60	0xbd047c90	-0.032345355
61	0xbd07c3f8	-0.033145875
62	0xbca2c105	-0.01986743
63	0xbc86b817	-0.016445203
64	0xbc9dbec3	-0.019256001
65	0xbc084f36	-0.008319667
66	0x3c87e6bd	0.016589517
67	0x3d1106ba	0.035406806
68	0x3ca167b8	0.019702777
69	0x3c1f38ed	0.009718162
70	0xbd06ecf4	-0.03294082
71	0x3a23444b	0.0006228133
72	0x3c2ac7bd	0.010423598
73	0x3cac7ab5	0.021054605
74	0x3b998966	0.0046855686
75	0xbc6d8630	-0.014497325
76	0x3cd8d1ff	0.026467321
77	0x3c5f0c59	0.013613784
78	0xbc0f774c	-0.00875647
79	0xba010213	-0.00049212686
80	0x3c8f3041	0.017479064
81	0x3cefdd32	0.029280279
82	0x3b96ff1f	0.0046080495
83	0x3ac17d7d	0.001476213
84	0xbce0c47b	-0.02743744
85	0xbcb7b972	-0.022427294
86	0x3cb3048b	0.021852752
87	0x3c638152	0.013885813
88	0x3b121a4f	0.0022293513
89	0x3cd6b288	0.026208177
90	0xbd10a94b	-0.0353177
91	0x3c51fe8c	0.012817036
92	0x3c864ada	0.016393114
93	0x3d0bf492	0.034168787
94	0xbc4b2507	-0.012398965
95	0xbcfa9203	-0.030587202
96	0x3d0b2d6f	0.033978876
97	0x3d0a6dd6	0.033796154
98	0x3ca0d703	0.019633776
99	0xbb5a506c	-0.0033312095
100	0xbd0b84cb	-0.034062188
101	0x3c36199c	0.011114504
102	0x3caaa23d	0.020829314
103	0xba7a53fa	-0.00095492566
104	0xbc49f9a9	-0.01232759
105	0xbd0984fe	-0.033574097
106	0x3c61ba50	0.0137773305
107	0x3d029a17	0.031885233
108	0x3c1a7af3	0.009428727
109	0x3c9cab36	0.019124608
110	0xbbdb374e	-0.0066899424
111	0x3b5871c0	0.0033026785
112	0x3c82e842	0.01597989
113	0x3c88354b	0.016626975
114	0xbc18ceb8	-0.009326629
115	0xbd090993	-0.033456396
116	0xbc9fef1e	-0.0195232
117	0xbc66bea5	-0.014083539
118	0x3c821a41	0.01588166
119	0xbc600907	-0.013674027
120	0xbc1e21b4	-0.00965159
121	0x3d0ce437	0.03439733
122	0x3c137cad	0.009001893
123	0xbbc63d11	-0.00604976
124	0x3cddec7e	0.027090307
125	0x3b43a97a	0.0029855655
126	0x3c6a03e2	0.014283152
127	0x3c2e3da3	0.0106348125
128	0x3cfda469	0.030962186
129	0x3d020db2	0.031751342
130	0x3cb884f0	0.022524327
131	0xbc25a468	-0.010109998
132	0xbce82b10	-0.028340846
133	0x3c1c8344	0.009552781
134	0xbc6ebb12	-0.014570968
135	0x3bbebda1	0.0058209454
136	0xbd0dbfda	-0.034606792
137	0x3bb3b07a	0.005483684
138	0xbb2ab76d	-0.0026049272
139	0x3c7676ad	0.015042943
140	0x3cfc57cf	0.03080359
141	0x3d008570	0.031377256
142	0x3cbc5813	0.022991216
143	0x3ce6fa4b	0.02819552
144	0xbca94c26	-0.020666193
145	0x3d018243	0.031618368
146	0xbbf9f357	-0.0076278853
147	0xbcebb813	-0.028774297
148	0xbc429ad4	-0.011877734
149	0xbcadaa08	-0.021199241
150	0xbd0b4a96	-0.034006678
151	0x3a93e130	0.0011282321
152	0xbd01262e	-0.03153055
153	0x3c39c6b1	0.011338876
154	0x3c15f721	0.009153158
155	0xbc1e3e64	-0.00965843
156	0x3cf46be5	0.029836604
157	0x3d137977	0.03600451
158	0x3c5368d6	0.012903413
159	0x3c4e7588	0.012601264
160	0xbd094265	-0.033510584
161	0x3c3f45b8	0.011674337
162	0xbb20a025	-0.0024509516
163	0xbcb0af8c	-0.021568082
164	0x3ca5900c	0.020210288
165	0x3d07dda6	0.033170365
166	0xbaac9735	-0.0013167622
167	0x3c177433	0.009244013
168	0x3bfad102	0.00765431
169	0xbcec9a57	-0.028882189
170	0xbcaf3d5d	-0.021391565
171	0x3c145d08	0.0090553835
172	0xbc853ebf	-0.016265271
173	0xbb02acf4	-0.0019939514
174	0xbc09cf5e	-0.008411257
175	0xbcf1f01b	-0.029533437
176	0x3ac5bbeb	0.0015085911
177	0xbc115c8a	-0.008872161
178	0xbcf8f4f4	-0.03039024
179	0xbcee47fd	-0.029087061
180	0x3d039ae4	0.032130137
181	0x3d0b0752	0.033942528
182	0xbc42610a	-0.011863956
183	0xbcda78c5	-0.026668916
184	0xbc944192	-0.018097673
185	0xbc9a9d18	-0.018873736
186	0x3ceda4c9	0.02900924
187	0x3b3df22f	0.0028983464
188	0x3c2359c8	0.009970136
189	0xbc88ca34	-0.01669798
190	0xbb522978	-0.0032068174
191	0xbba01cd6	-0.00488625
192	0x3cfff0ab	0.03124269
193	0xbc9ec1ab	-0.019379457
194	0x3d0f6a4b	0.03501348
195	0x3cdf5aa2	0.027264897
196	0x3a9614d4	0.0011450299
197	0xbc921cc3	-0.01783598
198	0xbc51ae02	-0.012797834
199	0x3cdeaf93	0.02718333
200	0x3cb25925	0.021771023
201	0x3c83d7c3	0.016094094
202	0xbcda5d6f	-0.02665588
203	0xbd04893d	-0.032357443
204	0x3a807f73	0.0009803608
205	0xbd0ff926	-0.035149716
206	0xbc082fd6	-0.008312186
207	0xbc7f9d1f	-0.015601425
208	0xbcea8986	-0.02863003
209	0xbcf4708f	-0.029838828
210	0x3c77b278	0.015118234
211	0x3c3f7d74	0.011687625
212	0x3cb857fa	0.022502888
213	0x3a265f4e	0.0006346599
214	0x3cdd2c25	0.026998589
215	0x3cab6c64	0.020925708
216	0x3b4338f8	0.0029788595
217	0x3cafb564	0.021448798
218	0x3d008679	0.031378243
219	0x3cbdcb4b	0.023168227
220	0xbce9ae2d	-0.028525436
221	0xbc85916d	-0.016304696
222	0x3d05dfcd	0.032684136
223	0xbce50fa1	-0.027961554
224	0x3c7b6432	0.015343713
225	0x3cbe1bb8	0.023206577
226	0x3cd279c4	0.025692828
227	0xbad0aae7	-0.0015920073
228	0xbcefd055	-0.029274145
229	0xbce043d2	-0.02737609
230	0x3ce686ae	0.028140392
231	0x3c1c5c10	0.009543434
232	0xbcf4563c	-0.029826276
233	0x3d0c21b0	0.034211814
234	0xbc61ea7c	-0.013788816
235	0xbafedd2c	-0.0019444576
236	0x3c4bfd02	0.0124504585
237	0xbc0e812d	-0.00869779
238	0x39b7d0d0	0.00035060057
239	0x3c4de98b	0.012567888
240	0xbcc87c4e	-0.024473336
241	0x3cfc4b84	0.030797727
242	0xbca368f0	-0.019947499
243	0xbc8ee54f	-0.017443327
244	0xbc83d11f	-0.016090928
245	0xbce15e91	-0.027510913
246	0x3ccf43dd	0.025300914
247	0x3ce33ed1	0.027739914
248	0x3d03273a	0.03201983
249	0xbd105d72	-0.035245366
250	0xbc149741	-0.009069265
251	0x3cf45e46	0.02983011
252	0x3b920869	0.004456569
253	0x3c2353f9	0.009968751
254	0xbc61bd46	-0.013778036
255	0xbced6e48	-0.02898325

model.0.bias f4 [256]
0	0xbbe1978c	-0.006884521
1	0x3c9610e0	0.018318594
2	0xbd00dfce	-0.031463437
3	0xbcc46c8a	-0.023977537
4	0x3b3c987f	0.0028777418
5	0x3bd457bd	0.006480186
6	0xbcd73a6a	-0.026272971
7	0x3c04178c	0.008062255
8	0xbc3cb7f6	-0.011518469
9	0xbb9b4ea8	-0.004739601
10	0x3cdfecf1	0.027334662
11	0x3bfe1f45	0.0077551925
12	0x3c8a0d08	0.016851917
13	0xbd02fda9	-0.03198019
14	0x3cf9b5d1	0.030482205
15	0x3d0351b7	0.03206035
16	0xbcfecb2f	-0.031102745
17	0x3d11888c	0.035530612
18	0x3d18fec6	0.037352346
19	0xbccf45ad	-0.025301779
20	0xb9e299b7	-0.00043220606
21	0x3d1fe2a0	0.039034486
22	0xbca7700e	-0.020439174
23	0xbca104f5	-0.019655684
24	0xbd008e55	-0.03138574
25	0xbc875945	-0.01652206
26	0xbcc9552d	-0.024576748
27	0x3b2228f2	0.0024743644
28	0x3c521e3c	0.012824591
29	0x3cba2faa	0.022727806
30	0x3a6172ab	0.00086001557
31	0x3a8d3d94	0.0010775798
32	0xbcb3221e	-0.021866854
33	0x3c1d0f18	0.009586118
34	0x3ccf0c54	0.025274433
35	0xbc9c0ea4	-0.01904995
36	0xbc7cfa33	-0.0154405115
37	0xbb85ec4d	-0.004087007
38	0x3d096236	0.033540927
39	0xbc008610	-0.007844463
40	0xbcf0c1fb	-0.029389372
41	0xbc473042	-0.012157502
42	0x3c6feaa2	0.014643343
43	0x37ccc9f1	2.4412731e-05
44	0xbcc0efc9	-0.023551838
45	0xbcdf76ba	-0.027278293
46	0xbc9c2c63	-0.019064134
47	0xbd0dfbaf	-0.034663852
48	0xbc2b8595	-0.01046886
49	0xbca7a1ba	-0.02046286
50	0x3bd1c0dd	0.006401165
51	0x3c340d57	0.010989509
52	0xbc915cae	-0.017744388
53	0x3cc023ea	0.023454625
54	0x3a932da2	0.001122881
55	0xbc57258d	-0.013131511
56	0x3d022c9d	0.031780828
57	0x3ca70d70	0.02039215
58	0x3c095b02	0.008383514
59	0xbc65bd8a	-0.01402224
60	0x3c26a25e	0.010170547
61	0xbc29f04a	-0.010372231
62	0x3c837487	0.016046776
63	0xbb35d3f7	-0.002774475
64	0x3cacdd4f	0.021101622
65	0x3d0325d2	0.03201849
66	0xbd0c68c7	-0.03427961
67	0x3c7b5599	0.015340232
68	0xbb2eebf5	-0.0026690934
69	0xbc236c59	-0.009974563
70	0x3d0c5e43	0.034269582
71	0xbc6b7ebe	-0.014373479
72	0xbcc9360b	-0.024561903
73	0xba3d88ac	-0.00072301435
74	0x3ae98ce0	0.0017818473
75	0x3c875511	0.016520055
76	0x3d02727c	0.031847462
77	0x3ccbdc48	0.024885312
78	0x3ce67460	0.028131664
79	0x3ca812fc	0.020516865
80	0xbbacc271	-0.0052722027
81	0xbcbb4c4f	-0.022863535
82	0xbcc7dfaf	-0.024398653
83	0xbc2f07d5	-0.01068302
84	0x3d07b8cc	0.03313522
85	0x3ccc3a02	0.024930004
86	0x3d21e84b	0.039528172
87	0xbccdaabf	-0.025105832
88	0xbce52962	-0.027973834
89	0x3cca313d	0.024681682
90	0xbc9f3d1a	-0.019438315
91	0x3c1faa36	0.009745171
92	0x3c0f1454	0.008732874
93	0x3cd00c26	0.025396418
94	0xbcc6074f	-0.024173407
95	0xbd21b2ce	-0.039477162
96	0xbb488cab	-0.0030601423
97	0xbcdb3c8a	-0.026762266
98	0xbc76f233	-0.015072393
99	0x3c865342	0.016397122
100	0xba3724e4	-0.0006986393
101	0xbce42325	-0.02784879
102	0x3d2b2c6b	0.041790407
103	0x3d237283	0.03990413
104	0x3beb71c3	0.0071851923
105	0xbcbe691b	-0.023243478
106	0x3c356495	0.011071344
107	0x3c904dd5	0.017615238
108	0xbd02bb0f	-0.031916674
109	0x3c2c824b	0.010529111
110	0x3cb103f0	0.021608323
111	0x3cf565d1	0.029955776
112	0xbc18e13a	-0.009331042
113	0x3d11c972	0.035592504
114	0xbca052db	-0.019570759
115	0xbbefe7b2	-0.0073213214
116	0x3d020928	0.031747013
117	0x3d2f1144	0.042741075
118	0xbbcd1ce7	-0.006259549
119	0x3cbe7fd8	0.02325432
120	0x3c43b40d	0.011944783
121	0x3c24d2b4	0.010060001
122	0xbc357d01	-0.011077167
123	0x3c2a313f	0.010387718
124	0x3d0dd4b1	0.034626666
125	0x3baf1371	0.005342894
126	0xbd031d71	-0.0320105
127	0x3d129bb5	0.035793025
128	0x3c97da09	0.018536584
129	0x3aba405c	0.0014209854
130	0xbb24f00a	-0.0025167488
131	0x3c68d959	0.014211976
132	0x3cee3af8	0.029080853
133	0x3cc9c436	0.024629693
134	0x3b31672d	0.0027069554
135	0x3d007545	0.031361837
136	0xbcb2dfdf	-0.021835266
137	0xbca19683	-0.01972509
138	0x3cd36a9a	0.025807668
139	0xbc6d7a38	-0.014494471
140	0x3ca3e13e	0.020004865
141	0xbbada386	-0.0052990345
142	0xbcf0e253	-0.029404795
143	0xbd0a61dc	-0.033784732
144	0x3ad904d5	0.0016557226
145	0x3cbdc998	0.023167416
146	0xbd041ec4	-0.032255903
147	0x3cbd346b	0.023096284
148	0xbcccbbac	-0.024991833
149	0xbc738721	-0.01486376
150	0xbcd76c74	-0.026296832
151	0x3bf1ecb5	0.007382954
152	0xbcaba18b	-0.020951053
153	0xbca7a5d9	-0.020464825
154	0x3ceba761	0.028766336
155	0x3c3bbd89	0.011458763
156	0x3c9575a6	0.018244576
157	0x3bc8786d	0.0061178715
158	0x3c2abcd4	0.010420997
159	0x3d059049	0.032608304
160	0xbcf83250	-0.030297428
161	0x3cef128e	0.029183652
162	0x3b664520	0.0035136417
163	0x3ca9fee4	0.020751424
164	0xbd0521a6	-0.032502793
165	0x3d0c4a2d	0.034250427
166	0x3c23d756	0.010000071
167	0xbcf2bd66	-0.029631328
168	0xbcd9d2fa	-0.02658986
169	0xbbdfa5fa	-0.006825206
170	0x3c100455	0.008790095
171	0xbbe5e394	-0.007015655
172	0xbcac472c	-0.021030031
173	0x3c8ea905	0.01741458
174	0xbc8b429c	-0.016999535
175	0xbc108916	-0.008821746
176	0x3d135d34	0.035977557
177	0xbcf8361e	-0.030299243
178	0x3c3ed650	0.011647776
179	0xbce92c63	-0.028463548
180	0x3c6ac0dc	0.014328208
181	0x3c331a7e	0.010931609
182	0xbc53eee3	-0.012935373
183	0xbc1362b1	-0.008995698
184	0xbc84b1ad	-0.016198004
185	0xbd0dde9c	-0.034636125
186	0x3bbbda38	0.005732801
187	0xbc44a899	-0.012003087
188	0xbd025432	-0.031818576
189	0x3b692afe	0.0035578604
190	0x3d19ab6c	0.037516996
191	0xbcb450ef	-0.022011248
192	0x3cdab4da	0.026697565
193	0xbc766800	-0.015039444
194	0x3d04444f	0.032291707
195	0x3c46e706	0.012140041
196	0xbcbbf019	-0.022941636
197	0x3c55ba70	0.013044938
198	0x3d13181a	0.035911657
199	0x3ce16ca4	0.027517624
200	0xbd00950c	-0.031392142
201	0xbce5a1d6	-0.028031271
202	0x3c4924f4	0.012276877
203	0x3cdd4e11	0.027014764
204	0x3bf68d11	0.0075241406
205	0xbcaffb66	-0.02148218
206	0x3ce7451f	0.028231202
207	0xbc683428	-0.014172591
208	0x3cb2d066	0.021827888
209	0xbca72415	-0.020402947
210	0x3cf869a7	0.030323816
211	0xbccedecf	-0.025252728
212	0x3bd6345f	0.006537005
213	0xbca5ee8a	-0.020255346
214	0x3cd4cd3b	0.025976768
215	0x3bd02b4f	0.006352819
216	0x3cfed76c	0.03110858
217	0x3c0e7953	0.008695918
218	0xbb89a57b	-0.004200635
219	0xbbc7b43c	-0.0060944837
220	0x3c459886	0.01206029
221	0x3c95dce7	0.018293811
222	0x3c8bfc87	0.017088188
223	0x3cc3b059	0.0238878
224	0xbce0dbb4	-0.027448513
225	0x3c7eb03d	0.015544948
226	0x3cdc0ab1	0.026860567
227	0x3afa178f	0.0019080507
228	0x3bfb781d	0.0076742307
229	0xbc9d415f	-0.01919621
230	0xbcca0e4b	-0.024665019
231	0x3b97766a	0.0046222704
232	0x3c05ee02	0.008174421
233	0x3ca68199	0.020325469
234	0x3cb2ec48	0.021841183
235	0x3b095187	0.0020953135
236	0x3ca7a493	0.020464217
237	0x3c7882ca	0.015167901
238	0xbb26bb77	-0.0025441328
239	0xbcba607d	-0.022751087
240	0x3d1126e7	0.03543749
241	0x3c92b37d	0.017907852
242	0x3ce483ad	0.02789482
243	0xbc8f1057	-0.017463846
244	0xbcfe4832	-0.031040285
245	0xbbab1fd6	-0.005222301
246	0xbd010c3e	-0.031505816
247	0x3a99e26e	0.0011740455
248	0x3ccdc226	0.025116991
249	0x3c6092d6	0.013706883
250	0x3cb69e7c	0.022292368
251	0xbc427ffb	-0.011871333
252	0xba1bd761	-0.0005944875
253	0xbb9d093b	-0.00479236
254	0xbc8a492d	-0.016880596
255	0xbc31e169	-0.010856965

model.3.weight f4 [128, 256]
0	0xbd6f6292	-0.058443613
1	0xbbe77141	-0.0070630615
2	0xbc340234	-0.010986853
3	0xbcf4473c	-0.029819123
4	0x3d2dd4c8	0.042439252
5	0x3d756bd7	0.059917297
6	0xbd290d60	-0.04127252
7	0x3d74edb2	0.059796996
8	0xbcc2922f	-0.023751346
9	0x3c7487ab	0.014924924
10	0x3c6a8777	0.014314524
11	0x3d55ef10	0.05222994
12	0x3d83d5cc	0.06437263
13	0xbcc4b4a3	-0.024011916
14	0x3b8ef6ab	0.004362901
15	0xbd071f31	-0.03298873
16	0xbd6e50b4	-0.058182433
17	0x3d06df4f	0.032927807
18	0xbc872a31	-0.01649961
19	0xbd0dd291	-0.03462464
20	0x3ba28fce	0.0049609905
21	0xbc7b0c09	-0.015322694
22	0x3d497338	0.049182147
23	0xbcae22b5	-0.021256784
24	0x3d0e671b	0.034766298
25	0x3b4c25d2	0.0031150472
26	0x3c168ffa	0.0091896
27	0x3d4b275c	0.049598083
28	0xbc9a9a09	-0.018872278
29	0x3d823b38	0.06358951
30	0xbba01ad5	-0.004886011
31	0xbcc3beca	-0.023894686
32	0xbd0091b1	-0.031388942
33	0xbb16f350	-0.002303321
34	0x3ca19065	0.019722173
35	0xbcebd54c	-0.028788231
36	0x3d0615a9	0.0327355
37	0x3d4afc1d	0.04955684
38	0xbc1df272	-0.009640323
39	0x3c99a11e	0.018753584
40	0x3d74efbe	0.05979895
41	0x3ca25ab6	0.019818645
42	0xbd277f2d	-0.04089277
43	0xbcb2c2b7	-0.021821363
44	0xbc2211ed	-0.009891969
45	0xbd6665bf	-0.056249376
46	0xbd438d6b	-0.04774229
47	0x3b02e7f7	0.0019974688
48	0xb94c6322	-0.00019491886
49	0xbcfd5f23	-0.030929154
50	0xbc8028fe	-0.015644547
51	0x3d025427	0.031818535
52	0x3d6862b0	0.05673474
53	0xbbfa8eba	-0.007646409
54	0x3bec6272	0.007213884
55	0x3d1796a2	0.03700889
56	0x3d4957cd	0.049156
57	0xbd17490b	-0.036934894
58	0x3cab0961	0.020878496
59	0x3d87b2bb	0.06625887
60	0x3d306cc4	0.043072477
61	0x3d90369f	0.07041668
62	0x3d9245fd	0.071422555
63	0x3d50ea97	0.051004972
64	0xbc88f663	-0.016719049
65	0xbd7bb3f2	-0.061450906
66	0x3c3af84c	0.011411738
67	0x3d4c532a	0.049884
68	0xbd62b0f5	-0.05534454
69	0x3c9e0a06	0.019291889
70	0x3cdb47eb	0.026767692
71	0x3cc9408a	0.024566907
72	0x3cafb7ba	0.021449912
73	0xbd113368	-0.035449415
74	0x3db917a9	0.09037716
75	0x3d718cb2	0.058972068
76	0x3d70d304	0.05879499
77	0x3cd1bc7d	0.025602574
78	0xbd29541b	-0.041339975
79	0x3d65f1e8	0.056138903
80	0x39e85880	0.00044316426
81	0xb9e4b815	-0.000436247
82	0x3d25b9e8	0.040460497
83	0x3d687de7	0.056760695
84	0x3d9da957	0.07698315
85	0x3d891de9	0.06695158
86	0xbbcffe26	-0.0063474355
87	0x3d394e42	0.045240648
88	0xbc0f32a7	-0.008740104
89	0x3d4b1286	0.049578212
90	0x3c75935f	0.014988749
91	0x3d091f19	0.033476923
92	0x3d828c9f	0.063744776
93	0xbd23d06d	-0.039993692
94	0xbd5dfbfd	-0.054195393
95	0xbd2d3965	-0.042291064
96	0xbd5ad8b3	-0.053429317
97	0xbd1e8df4	-0.038709596
98	0xbd208a78	-0.039194554
99	0x3d3d8c51	0.046276394
100	0xbc9888d3	-0.01861993
101	0x3d878885	0.06617836
102	0xbd1ac9cd	-0.03779011
103	0x3d54e3d4	0.051975086
104	0x3c2232ed	0.009899837
105	0x3d8744f4	0.06604949
106	0x3baecec3	0.0053347065
107	0x3d6ae412	0.05734641
108	0xbc48ef03	-0.012264016
109	0xbccc4a46	-0.02493776
110	0xbd1e4bad	-0.03864639
111	0xbcbfb12f	-0.023399917
112	0x3cf4b764	0.029872604
113	0xbcfb4a27	-0.030675007
114	0x3d927a10	0.07152188
115	0x3aa772fa	0.0012775355
116	0xbc9359aa	-0.017987091
117	0x3d490a31	0.049081985
118	0x3d819873	0.063279055
119	0xbd4331f1	-0.04765505
120	0x3d322c82	0.043499477
121	0xbd0ec25f	-0.034853335
122	0x3d390612	0.045171805
123	0xbcc2eb77	-0.023793919
124	0x3d71fc26	0.059078358
125	0x3cd06569	0.025438981
126	0x3c6b2cf0	0.014353976
127	0xbd742c14	-0.05961235
128	0xbd5b13be	-0.053485624
129	0xbc6ebdbf	-0.014571606
130	0xbc35a09c	-0.011085656
131	0x3d362ac7	0.04447439
132	0x3d2ba559	0.041905735
133	0x3d8eddc8	0.06975895
134	0x3d1d568c	0.038412616
135	0xbccf9b0c	-0.025342487
136	0xbcdb1e76	-0.026747923
137	0x3d4ea0df	0.050446387
138	0xbd3aaf68	-0.045577437
139	0x3b85b585	0.0040804767
140	0x3d8457bf	0.06462049
141	0x3d645e10	0.055753767
142	0x3c8f1a6f	0.01746866
143	0x3d072a39	0.03299925
144	0x3c503e12	0.012710111
145	0xbd31b1ca	-0.043382443
146	0x3cf0d808	0.029399887
147	0xbd590f08	-0.05299285
148	0x3c96ee7b	0.018424263
149	0xbb65343c	-0.003497376
150	0x3b2806d5	0.0025638838
151	0xbd1ac862	-0.037788756
152	0x3d7cb781	0.06169844
153	0x3d2c2dc3	0.04203583
154	0x3c9a47d2	0.018833075
155	0xbce07735	-0.027400592
156	0xbd7c1605	-0.061544437
157	0xbce23689	-0.027613895
158	0x3d3b38cb	0.04570846
159	0xbbf901be	-0.0075990846
160	0x3d299d45	0.04140975
161	0x3d3380c0	0.043823957
162	0xbd01dbd3	-0.03170378
163	0xbd7a35cb	-0.061086457
164	0x3b874c57	0.0041289735
165	0xbd43bc01	-0.047786716
166	0xbcbb9725	-0.02289922
167	0x3d600d75	0.054700334
168	0x3ce9daf4	0.028546788
169	0xbd26c219	-0.04071245
170	0x3c97f740	0.018550515
171	0x3d7cc44d	0.061710645
172	0xbd6eb004	-0.05827333
173	0x3d320766	0.043464087
174	0xbb9a86d6	-0.0047157807
175	0xbd7f7f7f	-0.06237745
176	0x3d360497	0.04443797
177	0xbd1b9976	-0.03798815
178	0x3d871e6c	0.065975994
179	0x3d76e1e0	0.060274005
180	0x3d6b6de8	0.05747786
181	0x3d4cd514	0.050007895
182	0x3b7b6c54	0.003836413
183	0x3cb8a847	0.022541178
184	0x3d868f94	0.06570354
185	0xbd505823	-0.050865304
186	0x3d454229	0.0481588
187	0xbd2cd414	-0.04219444
188	0x3cdcab91	0.026937278
189	0xbd0bd8a6	-0.03414216
190	0x3d22d660	0.039755225
191	0xbd110e08	-0.035413772
192	0x3d2ef100	0.042710304
193	0x3db61cae	0.08892189
194	0x3d5451ab	0.051835697
195	0xbd0bb48f	-0.03410774
196	0xbd059684	-0.032614246
197	0x3d7d7b86	0.06188538
198	0x3c9c5d46	0.019087445
199	0xbd4053d7	-0.046954956
200	0x3d53a74b	0.051673215
201	0x3d7eb84c	0.062187478
202	0xbc97ba8c	-0.01852157
203	0xbcdd2a7d	-0.026997799
204	0xbc66c259	-0.014084422
205	0xbd4c911f	-0.049943086
206	0xbd26ae23	-0.040693413
207	0x3d2b3ceb	0.041806143
208	0xbd04dcb6	-0.03243705
209	0xbc35d609	-0.011098393
210	0xbd009db7	-0.03140041
211	0x3d4c0300	0.04980755
212	0xbd2ef3ab	-0.04271285
213	0x3d25d12e	0.040482692
214	0x3cd2b312	0.025720153
215	0x3d2ede77	0.042692628
216	0x3cd0cdc9	0.025488751
217	0x3cbaba5d	0.022793943
218	0xbd095eb5	-0.033537585
219	0x3caec948	0.021336213
220	0xbd2d1be0	-0.04226291
221	0xbceab0e1	-0.028648796
222	0x3d06d015	0.032913286
223	0x3d831272	0.064000025
224	0x3d126cea	0.0357484
225	0x3d1b2e03	0.037885677
226	0x3bdcf1f7	0.0067427116
227	0x3cc28919	0.023747014
228	0xbcc5f55f	-0.024164854
229	0xbc0f992e	-0.008764548
230	0xb954bb32	-0.00020287631
231	0x3c2b65c4	0.010461275
232	0xbd48d5eb	-0.049032133
233	0x3d21aab9	0.039469454
234	0x3d7057ef	0.05867761
235	0x3d3afefe	0.045653336
236	0xbc2e3389	-0.010632404
237	0x3c0c36ea	0.008558014
238	0xbbb20294	-0.0054324362
239	0x3d47b247	0.048754003
240	0x3bc59473	0.0060296594
241	0x3d1a1be8	0.03762427
242	0x3ca97069	0.020683484
243	0x3ba7d95c	0.005122347
244	0xbd5236c6	-0.051321767
245	0x3d89cc8e	0.06728469
246	0x3c2a912d	0.010410589
247	0x39e3c95c	0.00043446838
248	0xbcc00f73	-0.023444867
249	0x3bb14b84	0.0054106135
250	0x3bfc2f33	0.0076960563
251	0x3d3ea89b	0.046547513
252	0xbb5f04d1	-0.003402997
253	0x3c94946a	0.018137176
254	0xbd64bac3	-0.055842172
255	0xbd1c2109	-0.038117442

model.3.bias f4 [128]
0	0x3cbb1417	0.022836728
1	0xbd6844f1	-0.056706373
2	0x3c050668	0.008119203
3	0xbd65e451	-0.056125943
4	0x3c94bbd6	0.018155973
5	0xbb213e7e	-0.0024603899
6	0xbcef5383	-0.029214626
7	0xbc46e82a	-0.012140313
8	0x3c8e576c	0.01737567
9	0x3c8f7dd7	0.01751606
10	0xbcc5ac30	-0.024129957
11	0xbb20ce7c	-0.0024537137
12	0x3ccea66e	0.025225844
13	0xbd3477c4	-0.04405953
14	0x3c5247e0	0.012834519
15	0x3d578c3b	0.05262397
16	0x3d6c5db2	0.057706542
17	0x3cb3e997	0.02196197
18	0xbcf7ce59	-0.030249761
19	0xbc2dc028	-0.010604896
20	0x3ccf1046	0.025276314
21	0xbce7c35c	-0.028291397
22	0xbc178353	-0.009247619
23	0x3bc89fac	0.00612255
24	0xbc7b75bd	-0.015347895
25	0x3d4bb3a7	0.049731877
26	0xba3fd2a4	-0.00073174597
27	0x3ccf65a7	0.025317026
28	0x3d6a199c	0.05715333
29	0xbd09c0a7	-0.033630993
30	0x3d06f6c2	0.03295017
31	0xbd15f4e0	-0.036610484
32	0x3d000c08	0.031261474
33	0x3cf5428a	0.029938955
34	0x3d7ac4a2	0.06122268
35	0x3d3c38a1	0.045952443
36	0x3caa7538	0.020807847
37	0x3c2287af	0.009920045
38	0xbd01da84	-0.031702533
39	0x3d0cef7c	0.034408078
40	0x3cb438fe	0.021999832
41	0x3b9e865a	0.0048377933
42	0x3c872bf3	0.016500449
43	0x3c0546af	0.008134528
44	0xbd444f48	-0.04792717
45	0x3d7f1752	0.0622781
46	0x3d8d9045	0.06912283
47	0x3c1d0710	0.009584203
48	0x3cd525f6	0.026019078
49	0x3b2383d8	0.0024950411
50	0x3bc3a8d1	0.005971052
51	0x3d0c51ce	0.034257703
52	0x3c202d54	0.009776432
53	0x3c26995c	0.0101684
54	0x3c96ece4	0.018423505
55	0x3c10ab0f	0.008829846
56	0xba944279	-0.0011311314
57	0xbc6b8233	-0.014374304
58	0x3c9a2032	0.01881418
59	0xbd4f8927	-0.050667908
60	0x3ce12332	0.027482603
61	0x3d11a4da	0.035557605
62	0x3cc99dbc	0.024611346
63	0x3d4132e1	0.047167663
64	0xbc4309f1	-0.011904226
65	0x3d17ab4d	0.0370286
66	0xbd2130a8	-0.039353043
67	0xbd16ae94	-0.036787584
68	0x3d3c0ac5	0.045908708
69	0xbd32dd8c	-0.043668315
70	0x3d81e736	0.06342928
71	0x3d357280	0.04429865
72	0xbd5ded6b	-0.054181498
73	0x3c721419	0.0147752995
74	0xbd06cfd4	-0.032913044
75	0x3d33f062	0.04393042
76	0xbc9d60b0	-0.019211143
77	0x3d62cbb2	0.05537004
78	0x3d00e2f4	0.03146644
79	0xbbd16f89	-0.00639147
80	0x3d3c0a0c	0.04590802
81	0x3c63f381	0.013913036
82	0x3d1298c5	0.035790224
83	0xbb105e2f	-0.0022028794
84	0x3ab1839a	0.0013543249
85	0x3d55cd44	0.05219771
86	0x3d650cf4	0.055920556
87	0x3c2f447c	0.01069748
88	0xbd019170	-0.03163284
89	0x3d500f02	0.050795563
90	0x3d298794	0.041389063
91	0x3d6e409a	0.058167078
92	0x3b1b2439	0.0023672713
93	0xbd3c4c08	-0.045970947
94	0x3d014b0f	0.031565722
95	0x3c8ec85c	0.017429523
96	0xbd3771a8	-0.044786125
97	0x3b89b2e6	0.0042022346
98	0xbc822de6	-0.015891027
99	0xbd3e083b	-0.046394568
100	0xbcce8890	-0.025211602
101	0x3ce9ac23	0.028524464
102	0xbd03beb0	-0.032164276
103	0x3d7cc5ca	0.061712064
104	0xbcdb9a6c	-0.026807033
105	0x3ce9da68	0.028546527
106	0xbd17ebb0	-0.037090003
107	0x3d3c6eea	0.046004213
108	0xbd0d5f1c	-0.03451453
109	0x3ca5e587	0.020251049
110	0x3c811248	0.015755787
111	0x3d614993	0.055001806
112	0x3bed16fe	0.007235407
113	0x3d919533	0.071085356
114	0xbd626c82	-0.055279262
115	0x3d934814	0.07191482
116	0x3d781f2e	0.06057661
117	0xbd4309c2	-0.047616728
118	0xbc812720	-0.015765727
119	0x3d8a9dc8	0.06768376
120	0x3d9157fd	0.070968606
121	0x3d0f4d29	0.034985695
122	0x3d3c6406	0.045993827
123	0x3d759b74	0.059962705
124	0xbd48dd94	-0.04903944
125	0xbd276d64	-0.040875807
126	0x39fd4d97	0.0004831373
127	0x3ca22ef3	0.019797778

model.5.weight f4 [4, 128]
0	0x3d9fea96	0.078084156
1	0x3b7b945a	0.0038387985
2	0xbd9fe1d3	-0.078067444
3	0xbb4a6187	-0.0030880885
4	0xbd34aee0	-0.044112086
5	0x3dc56470	0.096382976
6	0x3d8e1c8d	0.069390394
7	0x3da32104	0.079652816
8	0x3d2a312a	0.041550793
9	0x3d19f4fe	0.03758716
10	0xbcbccfae	-0.023048248
11	0x3c2b9a74	0.010473836
12	0xbb7753c5	-0.003773914
13	0x3d9a6b91	0.07540048
14	0x3d992316	0.07477395
15	0xbd10fb1d	-0.03539573
16	0x3c8ffa61	0.017575445
17	0x3d581b8d	0.05276065
18	0x3d0ae833	0.03391285
19	0x3d9732f2	0.07382764
20	0x3d9ed6d7	0.07755821
21	0x3cee7d22	0.029112402
22	0xbd1f678e	-0.038917117
23	0xbcbf39af	-0.023342935
24	0x3db3992b	0.08769449
25	0x3c503ddc	0.012710061
26	0xbcaa57a4	-0.020793743
27	0x3d869125	0.06570653
28	0x3d43d6c0	0.047812223
29	0xbd482cfc	-0.048871025
30	0x3d8370d8	0.064180076
31	0xbda2151b	-0.07914182
32	0x3afb0e76	0.001915409
33	0x3ce51f89	0.027969139
34	0xbd0bdf05	-0.034148235
35	0x3d386e95	0.045027334
36	0x3d8dc50e	0.06922351
37	0x3d9986fb	0.074964486
38	0xbd8dd7bc	-0.06925914
39	0xbae116a8	-0.001717289
40	0xbb9b1e1d	-0.0047338144
41	0xbc3c684d	-0.011499477
42	0x3d003762	0.031302817
43	0x3d03d605	0.032186527
44	0xbcfaf49e	-0.03063422
45	0xbcb45c8a	-0.022016782
46	0x3cd3d950	0.025860459
47	0x3ce04457	0.027376337
48	0xba7d47bc	-0.00096618733
49	0x3d9ed07e	0.077546105
50	0xbd3deedb	-0.04637037
51	0x3db9f76a	0.090803936
52	0x3ce10054	0.027465977
53	0xbda31024	-0.07962063
54	0x3c49f696	0.012326857
55	0xbd03693c	-0.03208278
56	0x3ce0030e	0.027345207
57	0xbcb654ed	-0.022257293
58	0xbd3994ea	-0.04530803
59	0x3d29dd82	0.041471012
60	0x3d32ae9e	0.04362356
61	0xbd875739	-0.06608433
62	0x3cac84f1	0.021059485
63	0xbb11f59e	-0.0022271643
64	0xbd82f059	-0.06393499
65	0x3d32251d	0.043492425
66	0x3dc0eb71	0.09419907
67	0x3db81be4	0.08989695
68	0xbd23b593	-0.039968085
69	0xbb5e15c9	-0.0033887497
70	0xbbd6dc96	-0.0065570576
71	0x3d711895	0.058861334
72	0x3d04cff2	0.032424875
73	0x3cb2c969	0.021824555
74	0xbd642c68	-0.05570641
75	0xbd60ae47	-0.054853704
76	0xbd8688ec	-0.065690845
77	0x3db9b10f	0.09066974
78	0xbd801008	-0.06253058
79	0x3db62962	0.08894612
80	0xbcc2c2cd	-0.023774529
81	0x3dafdc7f	0.08586978
82	0xbd406e27	-0.04698005
83	0xbc63f997	-0.013914487
84	0xbc3682b0	-0.011139557
85	0xbd320aef	-0.04346746
86	0xbc1866f8	-0.009301893
87	0x3db59db7	0.08867972
88	0x3d67a110	0.056550086
89	0x3d197301	0.037463192
90	0xbda7e36b	-0.081976734
91	0x3cd86acf	0.026418118
92	0x3d9e2b47	0.07723098
93	0x3d10cfa4	0.03535427
94	0x3dc81a76	0.09770672
95	0xbd502735	-0.05081864
96	0xbcbb89d3	-0.022892868
97	0xbc456bd6	-0.012049636
98	0xbd804c82	-0.06264593
99	0xbd9dc41d	-0.07703421
100	0xbd5f9bca	-0.05459193
101	0xbb152a17	-0.0022760683
102	0x3c780701	0.015138389
103	0x3ce59b5a	0.028028179
104	0xba85f0a0	-0.0010218807
105	0x3c7b9175	0.015354504
106	0x3dcedf0b	0.10101136
107	0x3d45b59d	0.048268903
108	0x3d9b8c92	0.07595171
109	0x3d43d3e2	0.04780949
110	0xbd101138	-0.03517267
111	0x3b786c45	0.003790633
112	0x3d56fc9d	0.052487005
113	0xbc90f705	-0.017695913
114	0xbc7fe0bf	-0.0156175485
115	0x3d9d7129	0.07687599
116	0x3d489e16	0.048978887
117	0xbd40b591	-0.047048155
118	0x3da8eb42	0.08247997
119	0x3d60ea83	0.054911148
120	0x3d8f876a	0.0700825
121	0x3d166af9	0.03672311
122	0x3db2bc77	0.08727353
123	0x3dbc9555	0.0920817
124	0x3d2f2687	0.042761352
125	0xbd8d822a	-0.069095924
126	0x3c6c3fbd	0.014419493
127	0x3d9006a8	0.070325196
128	0x3dbe37ef	0.09288012
129	0xbcf7244b	-0.030168673
130	0xbd004342	-0.031314142
131	0x3c99d44c	0.018777989
132	0x3c20701d	0.009792355
133	0x3dc8d144	0.09805539
134	0xbc9ec230	-0.019379705
135	0xbd625c69	-0.05526391
136	0x3dc04f7e	0.09390162
137	0x3da12d06	0.07869916
138	0x3ce81637	0.028330905
139	0xbd4119e0	-0.047143817
140	0x3cfcb1c7	0.03084649
141	0x3cea3a32	0.028592203
142	0xbd5566c5	-0.05209996
143	0xbce0641e	-0.02739149
144	0x3d3b4370	0.04571861
145	0x3d31bdab	0.043393772
146	0x3c9cc06b	0.01913472
147	0x3dc9d6ef	0.098554485
148	0x3c85f007	0.016349806
149	0x3d52d051	0.051468197
150	0x3b15b679	0.0022844358
151	0x3da99f65	0.08282355
152	0xbd7912d5	-0.060808975
153	0xbb7bd91b	-0.0038428965
154	0x3c837a60	0.016049564
155	0x3d903d61	0.07042957
156	0x3d613891	0.054985587
157	0xbb965adf	-0.0045884694
158	0xbc148bfa	-0.009066576
159	0xbd9c4b65	-0.07631568
160	0x3d52cb58	0.051463455
161	0x3c5aa1b9	0.013344222
162	0x3d91175c	0.070845336
163	0xbd724e5c	-0.05915676
164	0x3d80e563	0.06293752
165	0xbbfe8405	-0.007767203
166	0x3c9cea8b	0.019154808
167	0x3c1e6813	0.009668368
168	0xbcf9f315	-0.030511418
169	0x3d6beb91	0.0575977
170	0x3c057369	0.008145192
171	0xbd38c300	-0.04510784
172	0x3b950bb9	0.0045485166
173	0x3d8fffe2	0.07031228
174	0x3d9b0cd8	0.07570809
175	0x3d288a98	0.0411478
176	0xbd06c349	-0.032901082
177	0xbd37a11c	-0.04483138
178	0x3dac521c	0.084140986
179	0xbd1c83e7	-0.03821173
180	0xbd83a1a4	-0.06427315
181	0xbd8964f5	-0.06708709
182	0xbd90ab9c	-0.07063982
183	0xbd842889	-0.06453044
184	0x3dc30001	0.09521485
185	0xbd07e006	-0.03317263
186	0x3db64526	0.08899908
187	0xbc65b9bb	-0.014021332
188	0x3dc67346	0.096899554
189	0x3cbdc605	0.023165712
190	0x3dbb0a27	0.09132796
191	0xbb055a84	-0.002034814
192	0x3d83eaab	0.06441244
193	0xbb50b445	-0.003184573
194	0xbd0f8f18	-0.035048574
195	0x3d535577	0.051595178
196	0xbd9b9aa4	-0.07597855
197	0x3cfdea9e	0.030995663
198	0x3c289eee	0.010291798
199	0x3c2d7a55	0.010588248
200	0xbd7eb405	-0.0621834
201	0x3d1a3c27	0.037655022
202	0xbda10a9f	-0.07863354
203	0x3dc75878	0.09733671
204	0x3d98cd35	0.07461015
205	0xbd8d1f8a	-0.06890781
206	0xbd64ead0	-0.055887997
207	0x3d4849e7	0.048898604
208	0x3da7b792	0.0818931
209	0xbcd007c1	-0.025394322
210	0x3d120190	0.03564602
211	0x3d026fea	0.03184501
212	0x3d8a0c67	0.06740647
213	0x3d8170e1	0.06320358
214	0x3a993fc9	0.0011691983
215	0x3ba5c70f	0.00505913
216	0x3d33c6d0	0.043890774
217	0xbd2aff78	-0.04174754
218	0xbcabe752	-0.020984326
219	0x3d62149d	0.05519544
220	0xbd8152a9	-0.06314594
221	0x3d812230	0.06305349
222	0x3bc81572	0.006106072
223	0xbcea4a6c	-0.02859994
224	0xbbc7199a	-0.00607605
225	0x3d5ffc35	0.054683883
226	0xbc1cd54b	-0.009572337
227	0xbd1965fe	-0.037450783
228	0x3c751b68	0.014960147
229	0x3c8bb8da	0.017055918
230	0xbda10b46	-0.07863478
231	0x3dad9eb2	0.08477534
232	0xbd93eb1f	-0.0722258
233	0x3d89c318	0.06726664
234	0x3dcd0b61	0.10011936
235	0xbd229e26	-0.039701603
236	0xbd9a53a0	-0.075354815
237	0x3d0a8b05	0.033823986
238	0xbcc1d936	-0.023663145
239	0x3da44f50	0.0802294
240	0x3d4313cf	0.047626313
241	0x3d2a8819	0.0416337
242	0x3baa1ee6	0.0051916717
243	0x3d1895c9	0.03725222
244	0x3d322ccd	0.043499757
245	0xbd85d85c	-0.06535408
246	0xbc1d3e92	-0.009597437
247	0xbd7819fb	-0.060571652
248	0xbcf52198	-0.029923245
249	0xbd4b72c5	-0.04967
250	0x3cf481b0	0.029846996
251	0x3da0a22a	0.0784343
252	0x3dcda85c	0.100418776
253	0x3bd50d90	0.006501861
254	0xbbee5dae	-0.007274351
255	0xbccfd537	-0.025370223

model.5.bias f4 [4]
0	0x3ce6fdc0	0.02819717
1	0x3c2ce95f	0.010553687
2	0x3cb9e216	0.022690814
3	0x3ba4e0c2	0.005031676
